cnn_mnist_model.pth (torch, 831357 bytes, 8 tensors)

conv1.weight f4 [16, 1, 3, 3]
0	0xbee1e8d4	-0.44122946
1	0x3e959585	0.29215637
2	0x3ee900e4	0.45508492
3	0x3ef3354a	0.47501594
4	0x3efffbbe	0.49996752
5	0x3d0524f0	0.03250593
6	0x3e205936	0.15659031
7	0x3d79f097	0.06102046
8	0xbed370a7	-0.41296884
9	0x3ee850a8	0.45374036
10	0x3ee2daf8	0.44307685
11	0x3ea53454	0.32266486
12	0xbe790821	-0.24319507
13	0xbe082cf2	-0.13298395
14	0x3e278168	0.16357958
15	0xbf0723c2	-0.5278894
16	0xbdad95da	-0.084758475
17	0xbe60ebb1	-0.21964909
18	0xbcbc6630	-0.022997946
19	0x3edf8cec	0.43662202
20	0x3f011d29	0.5043512
21	0x3e23242a	0.15931764
22	0xbe434003	-0.19067387
23	0xbe9beb3e	-0.30452913
24	0x3d4ca2d8	0.049959987
25	0xbecefe78	-0.4042852
26	0xbe2f45ff	-0.17116545
27	0x3eb2ddfa	0.3493498
28	0x3eb2f19e	0.34949964
29	0xbef4ae2f	-0.47789142
30	0x3ed390b7	0.41321346
31	0xbe6c3c8f	-0.23069976
32	0xbe9619d3	-0.29316577
33	0x3edfffb3	0.4374977
34	0xbd73e82f	-0.0595476
35	0xbe961fe3	-0.29321203
36	0x3d9eea12	0.07759489
37	0x3e363d61	0.17796852
38	0xbe9f0339	-0.31057146
39	0xbe287bec	-0.16453522
40	0x3eb3cb9f	0.35116288
41	0x3e98371b	0.29729542
42	0xbed25e62	-0.41087633
43	0xbdfc0da9	-0.12307293
44	0x3ed16c24	0.40902817
45	0x3e809a36	0.25117654
46	0x3db2a9e4	0.0872381
47	0xbd95aa5b	-0.07307883
48	0x3ef11707	0.4708788
49	0xbea50fe7	-0.32238695
50	0xbeb7950f	-0.3585591
51	0x3eed65c0	0.46366692
52	0x3e64c787	0.22341739
53	0xbd5c576b	-0.053794306
54	0xbeb50a38	-0.3535936
55	0xbe1ce8f2	-0.15323237
56	0x3e6541b7	0.2238835
57	0xbe290ffd	-0.16510005
58	0xbe85a069	-0.26098946
59	0x3ef76c28	0.48324704
60	0xbe8c7f0a	-0.27440673
61	0x3e987793	0.29778728
62	0x3eb73d18	0.35788798
63	0x3e87f5f2	0.2655483
64	0xbe911cf9	-0.28342417
65	0xbecb51df	-0.397109
66	0x3e8aa9f8	0.270828
67	0xbe6f3272	-0.23359087
68	0x3c654777	0.013994089
69	0x3eccdf51	0.40014127
70	0x3f01922c	0.50613666
71	0x3d427037	0.047470298
72	0x3edcfea3	0.43163022
73	0x3e94b19b	0.29041752
74	0x3e596b8d	0.21232434
75	0xbeb6c768	-0.3569901
76	0xbeae6b17	-0.34066078
77	0xbdf10cf9	-0.117700525
78	0xbc543776	-0.012952676
79	0xbe878aa5	-0.26472965
80	0x3e4d5611	0.20052363
81	0x3e8cbab8	0.27486205
82	0x3f1ed428	0.62042475
83	0x3d89124c	0.06692943
84	0xbee120e1	-0.43970397
85	0x3e6fd3b6	0.23420605
86	0x3eee4aa2	0.46541315
87	0xbe7a25b5	-0.24428447
88	0xbdd44dbe	-0.10366391
89	0x3edb837e	0.42873758
90	0xbcdaf4e2	-0.026728097
91	0xbef4d756	-0.47820538
92	0xbe84ab17	-0.2591178
93	0xbe7e6217	-0.24842106
94	0xbe70eb8d	-0.23527355
95	0x3e446a36	0.19181141
96	0x3eef821b	0.4677895
97	0x3ecfbd67	0.4057419
98	0x3e9799fd	0.2960967
99	0x3eab9586	0.33512515
100	0x3ebbc272	0.36671788
101	0x3e849866	0.2589752
102	0xbe5934e5	-0.21211584
103	0x3dc320dd	0.095277525
104	0xbebd9e3b	-0.37034783
105	0x3e41bc9a	0.18919602
106	0xbda9f054	-0.08297792
107	0xbee5b2ca	-0.44862968
108	0x3ecbd866	0.39813536
109	0xbe0a6418	-0.13514745
110	0xbe5b6e4b	-0.21428792
111	0xbcb8765f	-0.022517381
112	0xbe7eb59d	-0.24873967
113	0x3e41c1a7	0.18921529
114	0x3eba2e22	0.36363322
115	0xbe8ced82	-0.27524954
116	0xbe9e228e	-0.30885738
117	0xbeb5982d	-0.35467663
118	0x3dce8b8f	0.100852124
119	0xbe95f91a	-0.29291612
120	0xbdbd53e2	-0.09244515
121	0x3cecf92d	0.02892741
122	0xbd9e9ddb	-0.07744952
123	0xbe986ea6	-0.29771918
124	0x3d634794	0.055488184
125	0xbe7faa6d	-0.24967356
126	0xbef544d2	-0.47904068
127	0x3e84309e	0.25818342
128	0x3e9e6aa3	0.30940732
129	0xbece6026	-0.4030773
130	0x3eaade35	0.33372656
131	0xbb2ee333	-0.0026685714
132	0xbe313c3a	-0.17308131
133	0x3ec2a645	0.3801748
134	0xbe242b3a	-0.16032115
135	0xbd48b5bc	-0.04900144
136	0xbdf6168c	-0.12016019
137	0x3d7b581f	0.061363336
138	0xbeb961a1	-0.36207297
139	0xbdab6a88	-0.083699286
140	0xbeb0c8bb	-0.34528145
141	0xbd741601	-0.059591297
142	0xbe855604	-0.26042187
143	0xbeaa3e6c	-0.3325075

conv1.bias f4 [16]
0	0x3def8098	0.11694449
1	0xbe2fa0a6	-0.17151126
2	0x3caa693e	0.020802137
3	0x3e0b8411	0.13624598
4	0x3e7a0859	0.24417247
5	0xbd440c78	-0.047863454
6	0x3df378cd	0.11888275
7	0x3c4335da	0.011914695
8	0x3d72224c	0.05911474
9	0xbdad54b5	-0.08463422
10	0xbcaf8fe8	-0.021430925
11	0xbd062b7d	-0.032756317
12	0xbc971131	-0.018440815
13	0xbe2c4587	-0.16823398
14	0x3d6f265c	0.05838619
15	0xbda5bb83	-0.08092406

conv2.weight f4 [32, 16, 3, 3]
0	0x3e05168d	0.12996884
1	0xbe014ba8	-0.12626517
2	0xbc80f402	-0.015741352
3	0x3e1d7280	0.1537571
4	0xbd91a6dc	-0.07111904
5	0x3ca89559	0.020579027
6	0xbc454d97	-0.012042425
7	0xbe24a339	-0.1607789
8	0x3b2dcd62	0.0026520123
9	0xbe0de7f9	-0.13858022
10	0xbe422a02	-0.18961337
11	0xbe304cde	-0.17216823
12	0xbdc713c6	-0.09720568
13	0xbdfeefaa	-0.12448056
14	0xbe5c2fd0	-0.21502614
15	0x3d2fe023	0.042938363
16	0xbe858df0	-0.26084852
17	0xbe635dab	-0.222037
18	0xbdc469f7	-0.09590524
19	0xbd7c3175	-0.061570603
20	0xbdf1d908	-0.118089736
21	0x3e1dd1ed	0.15412112
22	0xbd2f639e	-0.04281961
23	0xbea027ef	-0.31280467
24	0xbd056cec	-0.03257458
25	0xbe4b82bf	-0.19874094
26	0xbc2fcba2	-0.010729702
27	0x3e698532	0.22804716
28	0x3e3c2743	0.18374352
29	0xbd535986	-0.051599048
30	0x3df38b50	0.11891806
31	0x3d999e2e	0.075008735
32	0xbd921995	-0.07133786
33	0x3e0434a4	0.12910706
34	0xbde48ef5	-0.111600794
35	0x3d772c37	0.0603449
36	0x3db8de3c	0.09026763
37	0xbc70d10d	-0.014698279
38	0xbe23663b	-0.15956967
39	0xbd56c06e	-0.05242961
40	0xbdd9389d	-0.10606501
41	0x3a784587	0.00094708096
42	0xbe00e01e	-0.12585494
43	0xbcc91fa2	-0.024551217
44	0x3dee3c99	0.11632652
45	0x3e6590ab	0.22418468
46	0x3e436790	0.19082475
47	0xbd1cf42d	-0.0383188
48	0x3dcca5fe	0.09992598
49	0xbd8e8921	-0.06959749
50	0xbe0a8a86	-0.13529405
51	0x3bee020a	0.0072634267
52	0x3a539ed2	0.00080726773
53	0xbbb14107	-0.005409363
54	0x3e2514b4	0.16121179
55	0xbdf9675f	-0.121779196
56	0xbe21335f	-0.15742253
57	0x3dcd64fd	0.100290276
58	0x3b78b56d	0.0037949935
59	0x3c8d548c	0.01725223
60	0xbe044865	-0.12918241
61	0x3df093fb	0.11746975
62	0x3e0260d4	0.1273225
63	0x3d92743e	0.07151078
64	0xbd07c5e4	-0.033147708
65	0xbe1efe8d	-0.15526791
66	0xbd98209f	-0.07428097
67	0xbdc50593	-0.09620204
68	0xbe10dfc1	-0.14147855
69	0xbdd5fc73	-0.104485415
70	0xbcc24f1b	-0.023719361
71	0xbdbcc147	-0.09216552
72	0xbcad2290	-0.021134645
73	0xbe2551de	-0.16144511
74	0xbdb6bffb	-0.08923336
75	0xbd5f228b	-0.054476302
76	0xbc23e529	-0.0100033665
77	0xbd3f0212	-0.046632834
78	0x3e3204a4	0.17384583
79	0x3c9bf671	0.01903841
80	0x3cc382d2	0.02386609
81	0x3e660125	0.22461374
82	0xbe1a6861	-0.1507888
83	0xbe0d90d3	-0.13824777
84	0xbdc2e4f1	-0.09516323
85	0xbe41bd4d	-0.18919869
86	0xbbf76252	-0.0075495625
87	0xbe7ee214	-0.2489093
88	0xbe951407	-0.29116842
89	0x3ca0e453	0.019640123
90	0xbe1ecae2	-0.15507081
91	0xbe95129b	-0.29115757
92	0xbe0d192e	-0.13779137
93	0xbe2d5419	-0.16926612
94	0xbe0a0052	-0.13476685
95	0x3c41ad34	0.01182108
96	0x3b63f54d	0.0034783662
97	0x3d58caa0	0.052927613
98	0x3e0a5303	0.13508229
99	0x3d3adf1d	0.045622934
100	0x3d038a62	0.032114394
101	0xbe07d0a4	-0.13263184
102	0x3e4f4a72	0.20243242
103	0xbd34cd39	-0.044141028
104	0xbc8ed56a	-0.017435748
105	0x3da53df1	0.08068455
106	0xbe354206	-0.17700967
107	0x38dc5c1f	0.000105075764
108	0xbce041fa	-0.02737521
109	0x3ce4d672	0.027934287
110	0xbd094deb	-0.033521574
111	0x3c7cbe84	0.015426282
112	0x3deca114	0.11554161
113	0x3d1f6f9c	0.0389248
114	0xbd73ab32	-0.059489436
115	0x3d873942	0.06602718
116	0x3ca1de00	0.019759178
117	0xbdd60c33	-0.104515456
118	0xbd42dd75	-0.04757448
119	0x3d0549c8	0.032541066
120	0xbd7d8af5	-0.061900098
121	0x3d38667b	0.045019608
122	0x3d4badb5	0.049726207
123	0x3daa7f98	0.08325118
124	0xbc2902c1	-0.010315598
125	0x3c35e064	0.011100862
126	0x3e0e6508	0.13905728
127	0xbd925348	-0.07144791
128	0x3d96980d	0.0735322
129	0x3e2e1a1a	0.17002144
130	0xbdce742f	-0.10080754
131	0xbcbe9f7f	-0.023269413
132	0x3d2b416d	0.04181044
133	0xbd855e36	-0.0651211
134	0x3e5add0c	0.21373385
135	0xbdd3e160	-0.10345721
136	0xbd0a0f47	-0.033705976
137	0xbcc9c261	-0.02462882
138	0xbdc4465b	-0.09583732
139	0x3c926468	0.017870143
140	0x3cae4f9d	0.021278197
141	0x3daa1801	0.0830536
142	0xbd76e0f6	-0.060273133
143	0xbe03fe13	-0.1288989
144	0x3dae8fd2	0.08523525
145	0x3d214830	0.039375484
146	0xbd69bdd1	-0.05706579
147	0xbc3d8e01	-0.011569501
148	0xbdce2945	-0.10066465
149	0x3ccaa1ab	0.024735292
150	0x3cc337b0	0.023830265
151	0xbd9e7385	-0.07736877
152	0x3ddf1116	0.10891931
153	0xbe4c1172	-0.1992853
154	0xbd7b8d62	-0.06141413
155	0xbdebe621	-0.11518503
156	0xbdc5b2ac	-0.096532196
157	0x3cae2af0	0.021260709
158	0xbcff79a5	-0.031185934
159	0xbd851a98	-0.06499213
160	0x3dd13ea5	0.102170266
161	0x3e702cba	0.23454562
162	0xbdfce136	-0.12347643
163	0x3cf549e4	0.02994246
164	0xbdc679f2	-0.09691228
165	0xbe136225	-0.14392908
166	0xbdb5a18a	-0.08868702
167	0xbd7eb4c8	-0.062184125
168	0xbdeb8c0b	-0.115013205
169	0x3e2d5985	0.1692868
170	0x3e7315e3	0.23738818
171	0x3d88fea4	0.06689194
172	0x3e0dee6b	0.1386048
173	0x3df1d621	0.1180842
174	0x3d039981	0.032128815
175	0x3d9cc293	0.076542996
176	0xbcc5e8ca	-0.024158854
177	0xbb925169	-0.0044652713
178	0xbcdba493	-0.026811874
179	0xbcf09ebb	-0.029372564
180	0x3befe4b3	0.0073209642
181	0xbe0d214b	-0.13782232
182	0xbdead634	-0.11466637
183	0xbd005824	-0.031334057
184	0xbb96a988	-0.0045978464
185	0xbd2d2921	-0.04227555
186	0xbd6b6613	-0.057470392
187	0x3d8b22ec	0.0679377
188	0xbd3ee53f	-0.046605345
189	0x3de25f97	0.110533886
190	0x3e4914cf	0.19636844
191	0x3e0b00b6	0.1357449
192	0x3d3dbf4b	0.04632501
193	0x3e15d21e	0.14630935
194	0x3d87a4fa	0.06623264
195	0xbd7e40a6	-0.062073372
196	0x3ae5daff	0.0017536579
197	0xbe499818	-0.19686925
198	0x3de2d7f2	0.110763445
199	0xbdebbc58	-0.11510533
200	0xbdba232f	-0.09088742
201	0xbbfbdbf7	-0.007686134
202	0xbe2e381f	-0.17013596
203	0x3e09f8cb	0.13473813
204	0xbdfd17e1	-0.1235807
205	0xbe2684d8	-0.16261613
206	0xbd87ec0c	-0.06636819
207	0xbbdde0c2	-0.006771178
208	0x3da517e2	0.08061196
209	0x3d2c60f0	0.042084634
210	0x3dc7a13b	0.09747549
211	0x3e8942ce	0.2680878
212	0x3e2b47b7	0.16726576
213	0x3da689ca	0.0813175
214	0x3d44a4ff	0.048008915
215	0xbd87ca64	-0.066304
216	0xbe0558af	-0.13022111
217	0x3ad1a826	0.0015995547
218	0x3ba7f11b	0.0051251776
219	0xbe1982ad	-0.14991255
220	0xbc93fef4	-0.018065907
221	0xbd6b281f	-0.05741131
222	0xbe207b00	-0.15671921
223	0x3b1b9a8d	0.0023743242
224	0x3e3d0584	0.18459135
225	0x3e13f25b	0.1444792
226	0xbd38e2f6	-0.04513832
227	0xbe0d9640	-0.13826847
228	0x3d1cb8c2	0.038262136
229	0x3e18d40c	0.1492464
230	0xbe3871ff	-0.18012236
231	0x3da9832c	0.08276972
232	0x3bd4edb3	0.0064980625
233	0x3d332d90	0.043744624
234	0xbe26fdf2	-0.1630781
235	0xbcb61d6c	-0.022230826
236	0xbd5a8510	-0.053349555
237	0xbe28998d	-0.16464825
238	0x3e174f4b	0.14776342
239	0x3e792930	0.24332118
240	0xbe21ba13	-0.15793638
241	0xbd1208e6	-0.035653017
242	0x3e05ff37	0.13085638
243	0xbcb46497	-0.022020621
244	0x3d94d4b6	0.07267134
245	0xbc9a6acd	-0.018849755
246	0xbe738d8b	-0.23784463
247	0xbe4df075	-0.20111258
248	0xbde0758a	-0.10959919
249	0xbdafcd63	-0.08584096
250	0x3d8074e9	0.06272299
251	0x3e005dc2	0.12535766
252	0xbde413bb	-0.11136576
253	0x3c82f6c7	0.015986813
254	0x3d6912d6	0.05690273
255	0xbe4e6b97	-0.2015823

conv2.bias f4 [32]
0	0xbd40810b	-0.046998065
1	0xbd6a8af4	-0.057261422
2	0xbd09c244	-0.03363253
3	0xbd2630b1	-0.04057378
4	0xbda02d1e	-0.078211054
5	0xbc65dc7b	-0.014029617
6	0xbd5bcd25	-0.053662438
7	0xbcabb38d	-0.02095964
8	0xbbe2c481	-0.0069203977
9	0x3cba7334	0.022760011
10	0xbd44fca2	-0.048092492
11	0x3b3d4595	0.0028880585
12	0xbe06f05e	-0.1317763
13	0x3cf28f61	0.029609384
14	0xbd3f02ef	-0.046633657
15	0xbdaba3de	-0.083808646
16	0xbd545446	-0.051838182
17	0xbcc7645c	-0.024339847
18	0xbd6a3672	-0.05718083
19	0xbdc83aa7	-0.09776812
20	0xbcd8c8b5	-0.026462892
21	0xbd0f517e	-0.034989826
22	0xbd28201c	-0.041046247
23	0xbd19eef4	-0.0375814
24	0xbcc0ada1	-0.023520293
25	0x3c8f5cc0	0.017500281
26	0xbcbaa929	-0.02278574
27	0x3caf33f0	0.02138707
28	0x3ae3fd5c	0.0017394233
29	0xbd89c204	-0.06726459
30	0x3bc213f8	0.0059227906
31	0x3d807606	0.06272511

fc1.weight f4 [128, 1568]
0	0xbbfc438e	-0.007698483
1	0xbc46f8bd	-0.012144265
2	0x3cb32660	0.021868885
3	0xbc057aff	-0.008147
4	0xbccc4efd	-0.024940008
5	0x3ce3879d	0.027774626
6	0xbaadac8e	-0.0013250278
7	0xbaef2e6a	-0.0018248085
8	0x3cd87604	0.026423462
9	0x3d1cc49f	0.03827345
10	0x3d4ddc01	0.05025864
11	0xbdc34ee2	-0.0953653
12	0xbd34b841	-0.04412103
13	0x3d08d57b	0.033406716
14	0x3d241426	0.040058278
15	0xbd34a536	-0.04410287
16	0xbd57ec50	-0.0527156
17	0x3cd5e071	0.026107999
18	0x3cdfad59	0.027304338
19	0x3c270a24	0.010195289
20	0x3cef4751	0.029208811
21	0xbc8fa184	-0.017533071
22	0x3d226186	0.039643787
23	0x3b954d97	0.0045563686
24	0xb9895f09	-0.00026201483
25	0xbcc21512	-0.023691688
26	0xbc1e4234	-0.009659339
27	0x3d308d7e	0.043103687
28	0x3cade59e	0.021227654
29	0x3d4d7b89	0.05016664
30	0xbc079579	-0.008275383
31	0xbe074573	-0.13210087
32	0x3c9609af	0.018315164
33	0x3d90dfdc	0.07073948
34	0x3c1ccd43	0.009570423
35	0xbd0e13f0	-0.034686983
36	0x3d2d5479	0.042316888
37	0xbd2d1ef7	-0.04226586
38	0x3d5c0991	0.05372006
39	0xbccfa783	-0.02534843
40	0xbcf4a9d9	-0.029866146
41	0xbc8f07cf	-0.017459778
42	0xbcd0b903	-0.025478845
43	0xbd57296b	-0.052529734
44	0x3d390dd5	0.045179207
45	0x3cfe9349	0.03107609
46	0x3d237398	0.03990516
47	0x3c79d9a2	0.015249642
48	0x3b813e71	0.003944211
49	0xbb82a2af	-0.0039866786
50	0xbb87b5b2	-0.004141533
51	0x3c8f24d6	0.01747362
52	0xb92417d1	-0.00015649131
53	0x3c5ad6ea	0.013356904
54	0x3c5cfb4f	0.013487651
55	0x3bd5908a	0.0065174745
56	0x3d4c0b87	0.04981568
57	0xbd26dd77	-0.04073855
58	0xbd4c655c	-0.04990135
59	0xbcd74587	-0.02627827
60	0xbb8a53b7	-0.0042214054
61	0xbc5c366b	-0.013440709
62	0xbcf6c43f	-0.030122874
63	0xbc551383	-0.01300514
64	0x3c4cf67b	0.012509937
65	0x3d9f7be9	0.07787306
66	0xbcf67cf1	-0.030088874
67	0xbcee343d	-0.029077644
68	0x3cac8e1f	0.021063862
69	0x3c397bbb	0.011321004
70	0x3c749586	0.014928227
71	0x3d2cfe3d	0.042234648
72	0x3cc200ee	0.023682084
73	0x3dbfd593	0.09366908
74	0x3cfcce98	0.03086023
75	0x3d5c1289	0.053728614
76	0x3d0213c4	0.03175713
77	0x3ce0d9c7	0.027447594
78	0x399ac9ac	0.00029523426
79	0xbc1fa6ab	-0.009744327
80	0xbd3a1ae8	-0.045435816
81	0x3cb38d0a	0.021917839
82	0x3d525971	0.05135483
83	0xbcdc92e3	-0.02692551
84	0x3d3ca143	0.04605223
85	0xbce844c9	-0.028353112
86	0xbd49c236	-0.04925748
87	0xbd3f7ad8	-0.046748012
88	0x3ded1d0c	0.11577806
89	0x3de17441	0.11008502
90	0xbd27ddb5	-0.04098292
91	0xba706e2c	-0.00091716903
92	0xbd9f3519	-0.077737994
93	0x3d81aa17	0.0633127
94	0x3cd74045	0.026275763
95	0x3d7f1bde	0.062282436
96	0x3d30b4e0	0.043141246
97	0xbd1a087c	-0.037605748
98	0xbca0c7b7	-0.019626481
99	0xbc7a3100	-0.015270472
100	0x3d4fdf96	0.050750338
101	0xbd83d9ed	-0.064380504
102	0xbc4b71bc	-0.012417253
103	0xbbb085b3	-0.005387032
104	0xbd43b302	-0.047778137
105	0x3c313d5d	0.010817853
106	0x3d3b7697	0.045767393
107	0xbca92489	-0.020647304
108	0x3ca0ed0a	0.019644279
109	0xbd93de1b	-0.07220098
110	0xbdef9097	-0.116975
111	0xbc947cc4	-0.0181259
112	0xbcdf3dd8	-0.02725117
113	0xbbfd3095	-0.0077267387
114	0x3bc69ad6	0.0060609384
115	0xbc3036ca	-0.01075525
116	0x3dae1257	0.08499592
117	0x3c844aae	0.016148891
118	0x3c6c285d	0.01441392
119	0x3dd71090	0.10501206
120	0x3ce1d14d	0.027565623
121	0xbce54a2b	-0.027989468
122	0x3ba48d7d	0.0050217495
123	0x3d22440d	0.03961568
124	0x3d3657c4	0.044517294
125	0xbc6681c7	-0.014069027
126	0x3cc92318	0.024552867
127	0x3d0586b1	0.032599155
128	0x3ca954f7	0.020670397
129	0x3da1754f	0.07883703
130	0x3d36d6fd	0.044638623
131	0x3c923760	0.01784867
132	0xbcdd36c5	-0.027003655
133	0x3ceb1154	0.028694786
134	0x3d926738	0.07148594
135	0x3d7a6d9f	0.0611397
136	0x3de7f77e	0.11326502
137	0x3b2231a8	0.0024748836
138	0xbd807610	-0.06272519
139	0xbd3dc8f0	-0.046334207
140	0xbad7a860	-0.0016453378
141	0x3db36059	0.08758611
142	0x3d1a71b6	0.0377061
143	0x3e157ca2	0.14598325
144	0x3db47d18	0.08812922
145	0xbda9048b	-0.0825282
146	0xbd3211ec	-0.043474123
147	0x3c960b72	0.018316004
148	0x3c3a21a4	0.01136056
149	0xbb6fd680	-0.0036596358
150	0x3c0b208c	0.0084916465
151	0xbc66f12d	-0.014095587
152	0xbc9a35d4	-0.018824495
153	0x3cd7446a	0.02627774
154	0x38c55400	9.409338e-05
155	0xbb5e9db0	-0.00339685
156	0xbaa9dce0	-0.0012959503
157	0xbc631f1e	-0.013862399
158	0x3c529304	0.012852434
159	0x3ab1d960	0.0013568811
160	0x3ab5f310	0.0013881642
161	0xbb8ccb34	-0.0042966846
162	0x3c8f973e	0.017528173
163	0x3c4fda68	0.012686349
164	0xbcc04713	-0.02347139
165	0x3ba6f188	0.0050947107
166	0x3cb59f02	0.022170547
167	0xbca0f44c	-0.01964774
168	0xbb37fc58	-0.0028073993
169	0xbb022d48	-0.0019863416
170	0x3b9b2b38	0.0047353767
171	0x3cb9a62c	0.022662245
172	0x3c88e028	0.016708449
173	0x3cc36f72	0.023856852
174	0xba1f2fa0	-0.00060724653
175	0x3c8c339e	0.017114457
176	0x3cc36d40	0.023855805
177	0x3ad84000	0.0016498566
178	0x3bb57a9c	0.005538298
179	0x3c0e4110	0.008682504
180	0xbc95892d	-0.018253887
181	0xbb997264	-0.004682826
182	0xbcb69a16	-0.02229027
183	0x3afc90c0	0.0019269213
184	0x3c8d04de	0.017214235
185	0xbbe6c478	-0.007042464
186	0x3c7e2c0c	0.015513431
187	0xbc7b0a0b	-0.015322219
188	0x3ca26f7a	0.019828547
189	0x3ccbf1b6	0.02489553
190	0xbc5a2aae	-0.01331584
191	0xbb30efe8	-0.0026998464
192	0x3cba898e	0.02277067
193	0xbc96acf4	-0.018393017
194	0x3c900758	0.017581627
195	0x3c9cd436	0.019144159
196	0x3d817e57	0.063229255
197	0x3c853e5d	0.016265089
198	0x3cff3aee	0.03115603
199	0x3d637bb6	0.0555379
200	0xbb87f740	-0.0041493475
201	0x3b9be0df	0.0047570313
202	0xbb3623ea	-0.0027792403
203	0x3d96d914	0.07365623
204	0x3ca62693	0.020282065
205	0xba2788da	-0.0006390937
206	0x3d3d2c4b	0.04618482
207	0x3c9d17e8	0.019176438
208	0xbc229be3	-0.009924862
209	0xbc560e8e	-0.013064994
210	0x3d2b5f01	0.04183865
211	0x3c2c2d81	0.010508896
212	0x3cdf7e4d	0.027281905
213	0x3d146756	0.03623136
214	0xbd1da699	-0.038488958
215	0x3cd4046d	0.025881017
216	0x3d2ff5fb	0.042959195
217	0x3d324157	0.043519344
218	0x3c88ed35	0.016714672
219	0xbd53b673	-0.05168767
220	0x3d066d4d	0.03281908
221	0x3d747315	0.059680063
222	0x3dbbdccf	0.09172975
223	0x3ddf12a4	0.10892227
224	0xbd615e6c	-0.05502169
225	0x3c14bca2	0.009078177
226	0x3d4539eb	0.048150938
227	0xbcd20ee7	-0.025641872
228	0xbd81d206	-0.06338887
229	0x3c73d5cc	0.014882516
230	0x3dc47b87	0.095938735
231	0x3dbe0936	0.092791006
232	0x3d2cf3af	0.042224582
233	0xbd200523	-0.0390674
234	0xbd5da323	-0.054110657
235	0xbcb9a5f1	-0.022662135
236	0x3cb36273	0.02189753
237	0x3db1978b	0.08671483
238	0xbd366248	-0.044527322
239	0xbb3711ea	-0.0027934262
240	0xba8cbdef	-0.0010737757
241	0xbdcbbe97	-0.099484615
242	0xbdcc710e	-0.09982501
243	0xbd559fd5	-0.05215438
244	0xbccebcb4	-0.025236465
245	0x3cc5c00d	0.024139429
246	0x3ca7588b	0.020427963
247	0xbb8509d3	-0.004060009
248	0xbc97951c	-0.018503718
249	0x3c12046c	0.008912187
250	0x3cd27ca2	0.025694195
251	0x3b94de79	0.0045431224
252	0xbca021d5	-0.019547382
253	0x3bb238ad	0.005438885
254	0x3bd7af7f	0.0065822
255	0x3caa1ecc	0.020766638

fc1.bias f4 [128]
0	0xbcb44b23	-0.022008484
1	0xbcb85618	-0.02250199
2	0xbcac8f28	-0.021064356
3	0x3cc8d80d	0.024517084
4	0xbcff7665	-0.031184385
5	0xbcc509d6	-0.024052542
6	0xbcc56840	-0.024097562
7	0x3b4e4df1	0.0031479562
8	0x3c006170	0.007835731
9	0xbccad57a	-0.024759997
10	0x3d0a94bb	0.033833247
11	0xbbe59bf3	-0.007007116
12	0xbaa2ac98	-0.0012411056
13	0xbd1b4389	-0.037906203
14	0xbcddda58	-0.027081653
15	0xb8e97a00	-0.0001113303
16	0x3d447531	0.047963325
17	0xbc94956c	-0.018137656
18	0xbc5447b1	-0.012956546
19	0xbc7824dd	-0.015145508
20	0xbb74647e	-0.0037291343
21	0xbbb76f4c	-0.0055979844
22	0x3ca7364b	0.020411631
23	0x3c8e2030	0.017349333
24	0x3ced3600	0.028956413
25	0xbc34ae3e	-0.011027871
26	0x3b35dec8	0.0027751196
27	0xbce06421	-0.027391495
28	0xbc460537	-0.012086204
29	0x390c46b8	0.00013377785
30	0x3d11bfab	0.03558318
31	0xbced6ebf	-0.028983472
32	0xbcda3a01	-0.026638987
33	0x3ccf340c	0.025293373
34	0x3d2cf09a	0.042221643
35	0xbd68c652	-0.056829758
36	0xbc8c4621	-0.017123284
37	0xbc6b3314	-0.01435544
38	0xbb8d318b	-0.0043088845
39	0xbc8c319c	-0.0171135
40	0x3d835a18	0.064136684
41	0xbc3d6cc7	-0.011561579
42	0x3b1bfadf	0.0023800654
43	0x3aa617fe	0.0012671945
44	0x3a44e8ff	0.0007511526
45	0x3d2383a1	0.039920453
46	0x3b613441	0.003436342
47	0x3c52c736	0.012864878
48	0x3bbde27b	0.005794821
49	0x3d450bd0	0.04810697
50	0xbc88e766	-0.016711902
51	0x3c0fb8da	0.008772099
52	0x3be01df8	0.00683951
53	0xbc21dd02	-0.0098793525
54	0xbd28142a	-0.041034855
55	0x3c78718d	0.015163791
56	0xbc697108	-0.01424814
57	0xbb644c38	-0.003483547
58	0x3c4b0cbd	0.012393174
59	0xba3f062e	-0.00072869926
60	0x3c8a75af	0.016901819
61	0xba810465	-0.0009843229
62	0x3c35b77e	0.011091111
63	0xbc271674	-0.010198224
64	0x3b9c7a0b	0.004775291
65	0xbcb40dc6	-0.021979224
66	0xbc35844e	-0.011078907
67	0x3c248274	0.010040868
68	0x3c6a8e8e	0.014316214
69	0xbafb4bcc	-0.001917237
70	0xbbc82979	-0.0061084596
71	0xbc77835a	-0.015107
72	0x3be75bf3	0.0070605217
73	0x3c3cab2c	0.01151542
74	0x3cf254af	0.029581396
75	0xbd2aeffd	-0.041732777
76	0xbd1c6d9f	-0.03819048
77	0x3c68010c	0.014160406
78	0xbccb6527	-0.024828507
79	0xbcdd8094	-0.02703885
80	0xbcdeefb7	-0.027213914
81	0xb9edef93	-0.0004538266
82	0x3c5639d0	0.013075307
83	0xbd03a52c	-0.032139942
84	0xbc6f17e0	-0.014593095
85	0xbc43e39d	-0.011956123
86	0xbbbe69d4	-0.0058109555
87	0xbcb8efc5	-0.022575269
88	0x3b6d8bf6	0.0036246753
89	0x3d1c7135	0.0381939
90	0xbc38341f	-0.011242895
91	0x3c9102e3	0.017701572
92	0xbb4c6636	-0.0031188852
93	0x3ce3cfe9	0.0278091
94	0x3cc260f6	0.023727875
95	0x3d6fe296	0.0585657
96	0xbc310398	-0.0108040795
97	0x3c04ab3e	0.008097468
98	0xbae261d6	-0.0017271589
99	0xbcd72e2f	-0.02626714
100	0x3c1aadb7	0.009440831
101	0xbd09be6b	-0.033628862
102	0x3d0675d8	0.03282723
103	0xbb1996a1	-0.002343573
104	0xbd17b794	-0.037040308
105	0xbd26ca8f	-0.04072052
106	0x3bab86f6	0.0052345945
107	0x3c8aa23b	0.01692306
108	0xbc323a1e	-0.010878114
109	0xbce140fb	-0.027496805
110	0x3d2aba7e	0.04168176
111	0x3cb38fc1	0.021919133
112	0x3cd2bd32	0.025724981
113	0xbba43ff5	-0.005012507
114	0xbbe695fe	-0.0070369234
115	0xbd13edb5	-0.036115367
116	0x3c08b44c	0.008343767
117	0x3c5ef2fb	0.013607736
118	0x392c3177	0.00016421625
119	0xbcc38545	-0.023867259
120	0xbaf6dfd6	-0.0018835019
121	0x3cbd9afc	0.023145191
122	0xbaa1bba1	-0.0012339243
123	0xbc825151	-0.015907915
124	0x3d09446c	0.033512518
125	0xbc58f7c2	-0.013242664
126	0x3d0c4b50	0.03425151
127	0x3cb0ef26	0.02159841

fc2.weight f4 [10, 128]
0	0xbdccd189	-0.10000903
1	0x3d65954e	0.05605059
2	0xbd01b96a	-0.031670965
3	0x3dfe5d74	0.124201685
4	0x3d1b03e1	0.037845496
5	0x3aab2868	0.0013058307
6	0xbe45f54c	-0.19331855
7	0xbdd51d1c	-0.10405943
8	0xbda66f12	-0.08126654
9	0xbdac22f9	-0.08405108
10	0xbe19aa11	-0.15006281
11	0x3cac9804	0.02106858
12	0x3d5e390e	0.05425363
13	0xbdcff2be	-0.10153721
14	0xbd7b5be4	-0.06136693
15	0xbd31335e	-0.04326188
16	0xbe3ecb53	-0.1863225
17	0xbd8f8084	-0.07006934
18	0x3c412814	0.0117893405
19	0xbe15161b	-0.14559214
20	0x3c3a89c3	0.011385384
21	0x3d230ca2	0.03980697
22	0xbc3b7095	-0.011440416
23	0x3db96636	0.09052698
24	0xbb37eb8d	-0.0028063983
25	0x3d684e08	0.05671504
26	0x3d19674b	0.037452023
27	0xbd2d9fe3	-0.042388808
28	0xbd3d1c11	-0.046169344
29	0xbb2e5700	-0.002660215
30	0xbd2b3221	-0.041795854
31	0xbdb4d4f8	-0.08829683
32	0x3bafd71d	0.0053662197
33	0x3d664969	0.056222353
34	0xbdfa47df	-0.122207396
35	0xbd1eb59f	-0.038747426
36	0x3cbfb470	0.023401469
37	0xbd74656f	-0.059667047
38	0x3d344d9d	0.04401933
39	0xbd8ccfe9	-0.06875593
40	0xbdf1e8da	-0.11811991
41	0xbdb4ba04	-0.08824542
42	0xbb1e920d	-0.002419594
43	0xbdb1262c	-0.08649859
44	0x3d800f69	0.06252939
45	0xbcd23fcd	-0.025665188
46	0x3b674b5e	0.0035292725
47	0x3d672905	0.056435604
48	0xbdca46eb	-0.09876808
49	0x3dffea7e	0.12495898
50	0xbd6f67d3	-0.058448624
51	0xbd832ce7	-0.06405049
52	0x3dd2e4cd	0.102975465
53	0x3a31ceca	0.0006782828
54	0x3c5f4cb5	0.013629128
55	0xbe70b339	-0.23505868
56	0x3b92cb78	0.004479822
57	0xbd594b20	-0.05305016
58	0xbd9fa2a9	-0.07794697
59	0xbdb1a6ed	-0.08674417
60	0xbd9463c1	-0.07245589
61	0xbd251acf	-0.04030877
62	0x3caf68a9	0.02141221
63	0x3d3c550a	0.045979537
64	0x3dbc38fd	0.09190557
65	0x3d751bd5	0.059840996
66	0xbdada724	-0.08479145
67	0x3da5acdf	0.08089613
68	0xbde59a3a	-0.11211057
69	0xbd6282e6	-0.055300616
70	0x3da7a6c2	0.081861034
71	0x3c603a69	0.013685801
72	0x3d9b098f	0.075701825
73	0x3d327d55	0.043576557
74	0x3df30b1b	0.118673526
75	0x3c79d770	0.015249118
76	0xbd3b1ed7	-0.045683708
77	0x3e09ff7e	0.13476369
78	0x3cac4198	0.021027371
79	0x3cc6fc91	0.024290355
80	0xbde7475a	-0.11292906
81	0xbe0f1a42	-0.1397486
82	0xbe389386	-0.18025026
83	0x3da50527	0.08057623
84	0x3ce7bf81	0.028289558
85	0xbd5eb6d9	-0.054373596
86	0x3badf65c	0.0053089093
87	0x3d32c377	0.04364344
88	0x3dab0964	0.083514005
89	0x3dcc0aef	0.09963023
90	0x3d2e9cc8	0.042629987
91	0xbca8a0b0	-0.020584434
92	0x3dbe51e4	0.09292963
93	0x3d94e6a4	0.07270554
94	0xbd70167d	-0.058615196
95	0x3df64b6e	0.12026106
96	0xbd690259	-0.056887005
97	0xbe3e92e3	-0.1861072
98	0xbd2302fd	-0.03979777
99	0x3d95778f	0.072981946
100	0x3d99e917	0.075151615
101	0xbd4f2fcd	-0.050582696
102	0xbdd53757	-0.10410946
103	0xbe23afb4	-0.15984994
104	0x3c7da576	0.0154813435
105	0xbd2ab24c	-0.041673943
106	0x3d690e79	0.056898568
107	0xbd93ded9	-0.07220239
108	0x3c122d65	0.008921956
109	0x3d463353	0.04838879
110	0xbe27f07d	-0.16400333
111	0xbc56069d	-0.0130631
112	0x3d1a03a1	0.037601117
113	0x3d5aa3cb	0.05337886
114	0xbd017088	-0.03160146
115	0xbc990f21	-0.018683972
116	0xbd9879c6	-0.074451014
117	0x3d8eb795	0.06968609
118	0x3db5ea5e	0.088825926
119	0xbd0be0cb	-0.034149926
120	0xbd0c4254	-0.034242943
121	0x3cb91c31	0.02259645
122	0x3b8e25d8	0.0043380074
123	0x3e3ae7ab	0.18252437
124	0x3d728cea	0.059216417
125	0xbc35a953	-0.011087733
126	0x3d9f541f	0.07779717
127	0x3e048cbb	0.1294431
128	0x3bb36a9b	0.005475355
129	0xbda8dc86	-0.082451865
130	0xbbbc81cc	-0.0057527777
131	0xbd9840bd	-0.07434223
132	0xbcf05b56	-0.029340427
133	0x3d26cb63	0.04072131
134	0xbdd9089e	-0.10597347
135	0x3de38ffd	0.11111448
136	0xbd40c549	-0.047063146
137	0x3d9ab303	0.07553675
138	0x3d7f62f9	0.062350247
139	0xbe01e799	-0.12686004
140	0xbdbf7d80	-0.09350109
141	0xbcf31ee9	-0.029677825
142	0x3d781988	0.060571223
143	0x3db07954	0.086168915
144	0x3d955343	0.072912715
145	0x3c0395f0	0.008031353
146	0xbd18dcee	-0.03732007
147	0xbcd43526	-0.02590425
148	0xbdbf5af0	-0.09343517
149	0xbe1bcd61	-0.15215065
150	0xbe372a03	-0.1788712
151	0x3ca65206	0.020302784
152	0xbe24f4bf	-0.16108988
153	0xbc750f3d	-0.014957246
154	0x3dac32a2	0.08408095
155	0x3bca0165	0.006164717
156	0x3d677f00	0.0565176
157	0xbc9272b6	-0.017876964
158	0x3e264a41	0.16239263
159	0x3b9d17cb	0.004794096
160	0xbd45964d	-0.04823904
161	0x3e0c9352	0.13728073
162	0x3e402183	0.18762784
163	0xbd55ceb3	-0.052199077
164	0xbd950a4b	-0.07277354
165	0x3dcc8d41	0.099878795
166	0xbe1461bd	-0.14490409
167	0xbd59cab1	-0.053171817
168	0x3df977ca	0.12181051
169	0xbd913541	-0.070902355
170	0x3d41496f	0.047189172
171	0x3cea182d	0.028575981
172	0xbd8346e0	-0.06410003
173	0xbbf80742	-0.0075692246
174	0xbd8d0e89	-0.06887538
175	0x3dd35897	0.103196315
176	0x3dc2c2a7	0.09509783
177	0x3d07f4df	0.03319251
178	0x3d836ab7	0.064168386
179	0xbd977ee0	-0.07397246
180	0xbd8cce90	-0.06875336
181	0xbe13cd80	-0.14433861
182	0xbd993a1a	-0.07481785
183	0xbcef0d02	-0.029181007
184	0x3cbb07a6	0.022830795
185	0xbd81896c	-0.06325039
186	0xbc1b002b	-0.009460489
187	0x3c44ba6e	0.012007339
188	0x3d07c732	0.03314895
189	0x3e227cc6	0.1586791
190	0xbda14ba9	-0.07875759
191	0x3da102d8	0.078618705
192	0x3d784a64	0.06061782
193	0x3b39c65f	0.0028346998
194	0x3dc47271	0.095921405
195	0xbc0d3c92	-0.008620398
196	0x3dbcb048	0.092133105
197	0x3d9f1650	0.07767928
198	0x3cd9bfc3	0.026580697
199	0xbd84a7a6	-0.06477289
200	0xbd34671a	-0.044043638
201	0x3d28d81f	0.041221734
202	0x3dc39f82	0.09551908
203	0xbdd1804e	-0.1022955
204	0x3d672588	0.056432277
205	0x3db1bf8c	0.08679113
206	0xbbee3a6f	-0.0072701494
207	0x3d643ce4	0.055722132
208	0xbe13f499	-0.14448775
209	0x3c51b8a0	0.012800366
210	0x3dbf9b76	0.09355824
211	0xbdbe4c07	-0.09291845
212	0xbcf1dfaa	-0.029525597
213	0xbe12a05f	-0.14318989
214	0xbb9f5ca2	-0.0048633376
215	0x3999fc36	0.00029370346
216	0x3ba043e9	0.004890908
217	0x3e0b95d2	0.1363137
218	0xbd67f4e1	-0.05663002
219	0x3c4bf381	0.012448193
220	0xbe3c815b	-0.1840872
221	0x3b6eecac	0.0036456985
222	0xbd30ff69	-0.043212328
223	0x3df30177	0.11865514
224	0xbe578443	-0.21046548
225	0xbe1593f1	-0.14607216
226	0xbdd52fb8	-0.10409492
227	0xbd98262d	-0.074291565
228	0xbd8f1769	-0.06986887
229	0x3db7b385	0.089697875
230	0x3d14dd76	0.036344014
231	0xbca75c10	-0.020429641
232	0xbd3bcc1e	-0.04584896
233	0xbd682700	-0.05667782
234	0x3d4d0c57	0.050060596
235	0xbdd36d75	-0.10323612
236	0xbd1e5f10	-0.038664877
237	0xbd2d08aa	-0.04224459
238	0x3da13420	0.0787127
239	0x3ceb923a	0.02875625
240	0xbbcd0d99	-0.0062577245
241	0xbd88a6e3	-0.06672456
242	0xbd94b126	-0.07260351
243	0xbe8ec280	-0.27882767
244	0xbcf0b9bd	-0.029385442
245	0xbde953c3	-0.113929294
246	0xbe4d4dec	-0.20049256
247	0x3ce62d5b	0.028097799
248	0xbd79ddd0	-0.061002553
249	0xbd3f39f6	-0.046686135
250	0xbd9700fd	-0.073732354
251	0xbd835f3a	-0.064146474
252	0x3e18f1c0	0.1493597
253	0xbc913521	-0.01772553
254	0xbd33db2a	-0.043910183
255	0xbda6c12f	-0.081423156

fc2.bias f4 [10]
0	0x3d6b0477	0.057377305
1	0xbd1736b9	-0.036917422
2	0xbcae7a82	-0.02129865
3	0x3dd9a96d	0.106280185
4	0xbd273b55	-0.040828068
5	0xbc63d399	-0.013905429
6	0x3a6775b7	0.00088294916
7	0x3c3cf476	0.011532893
8	0x3d99158e	0.07474814
9	0xbdb3d5d3	-0.08781018
